Brain-tumor-class-nillion/quickstart/nada_quickstart_programs/src/data/my_model.pt (torch, 214092 bytes, 8 tensors)

conv1.weight f4 [8, 3, 3, 3]
0	0xbd6307ef	-0.055427488
1	0x3dc41229	0.09573776
2	0x3bd32a12	0.006444224
3	0xbe2b0345	-0.16700466
4	0x3e5209bb	0.20511524
5	0x3e2fb0b6	0.17157254
6	0x3d53dbe1	0.051723365
7	0xbe1c3305	-0.15253837
8	0x3c7870ef	0.015163644
9	0xbe2f64d6	-0.1712831
10	0xbe32e317	-0.1746944
11	0xbb8a9fe9	-0.0042304886
12	0x3d7c66f5	0.061621625
13	0xbe018e45	-0.12651928
14	0xbd0a1beb	-0.03371803
15	0xbdcf777d	-0.101302125
16	0x3d1e74ec	0.038685724
17	0x3e0376f7	0.1283835
18	0xbb21d81d	-0.0024695464
19	0x3e020639	0.12697686
20	0xbdb8666a	-0.09003909
21	0xbd96689a	-0.0734417
22	0x3e128e7a	0.14312163
23	0xbe13b48d	-0.14424343
24	0xbe43f497	-0.19136272
25	0x3d670fe5	0.056411643
26	0xbce87930	-0.0283781
27	0x3cd088d1	0.025455864
28	0x3e38a876	0.18033013
29	0xbc3e20e0	-0.011604518
30	0xbda7243d	-0.08161209
31	0x3d2cff64	0.042235747
32	0xbe3d8b91	-0.18510272
33	0xbdc701d5	-0.09717146
34	0x3ddf157b	0.10892769
35	0xbd1225b1	-0.035680477
36	0x3e3baaf7	0.18326937
37	0xbdcf471e	-0.101209864
38	0x3e4ae6c9	0.198146
39	0xbd98e065	-0.07464675
40	0x3e415704	0.1888085
41	0xbc66db0a	-0.014090309
42	0xbe021839	-0.12704553
43	0x3e1245d5	0.14284451
44	0xbde20707	-0.110364966
45	0x3c38bc5d	0.011275378
46	0xbc108e82	-0.008823039
47	0x3da34cf2	0.079736605
48	0x3e3a9165	0.18219526
49	0x3cd95737	0.026530845
50	0x3e0575b5	0.13033183
51	0x3d8449b8	0.06459373
52	0x3e060d46	0.13091001
53	0xbe0d7970	-0.13815856
54	0x3ccd44ad	0.025057161
55	0xbcf29064	-0.029609866
56	0xbd977c0f	-0.07396709
57	0xbd0c6004	-0.034271255
58	0xbe20a7c9	-0.15689005
59	0xbe1591e6	-0.14606437
60	0x3e088536	0.13332066
61	0xbe17a4ab	-0.1480891
62	0x3a77ad44	0.0009448121
63	0x3b9032b7	0.004400577
64	0xbd93b041	-0.07211352
65	0x3da3bb01	0.079946525
66	0x3d1b1eb8	0.037871093
67	0x3db5efbd	0.08883617
68	0xbbe92862	-0.0071154097
69	0x3dc34edb	0.09536525
70	0xbce5f62e	-0.02807149
71	0x3d20f0f3	0.039292287
72	0xbd274054	-0.040832832
73	0x3e2e9b07	0.17051326
74	0xbd9cc743	-0.07655194
75	0x3dc430f3	0.09579649
76	0xbc2b8027	-0.010467566
77	0x3cc5897b	0.024113407
78	0x3c635b06	0.013876682
79	0x3d0ecc44	0.03486277
80	0xbd4099f2	-0.047021814
81	0x3dcfc214	0.10144439
82	0x3dd06319	0.101751514
83	0x3d9ae554	0.07563272
84	0x3c2806a7	0.010255492
85	0x3c1b57b9	0.009481364
86	0x3e0eeca4	0.13957459
87	0xbe081864	-0.13290554
88	0x3e240265	0.16016538
89	0x3de92de9	0.1138571
90	0x3d4dd530	0.05025214
91	0x3dd08744	0.1018205
92	0x3c057ee9	0.0081479335
93	0xbd56d36b	-0.052447718
94	0xbe150166	-0.14551315
95	0x3dc0f34b	0.094214045
96	0x3e3b286a	0.18277135
97	0xbdb5ce2f	-0.08877217
98	0xbc8abe56	-0.016936462
99	0xbba8d097	-0.005151819
100	0x3d7bd390	0.06148106
101	0x3e09e7bf	0.1346731
102	0x3dd45f29	0.10369713
103	0xbde347a9	-0.110976525
104	0xbdb403bd	-0.087897755
105	0xbca63c47	-0.020292414
106	0x3e0bd10a	0.13653961
107	0x3e1faefc	0.15594095
108	0xbdfb8357	-0.122809105
109	0xbc0afb26	-0.00848273
110	0xbdbe4478	-0.09290403
111	0x3daedd82	0.08538343
112	0xbbb43fac	-0.0055007543
113	0xbde2cddb	-0.1107442
114	0xbdbe2313	-0.092840336
115	0xbd37c698	-0.044867128
116	0x3def1a67	0.11674958
117	0xbdacaa99	-0.084309764
118	0x3e1bef3a	0.15227976
119	0x3e3ed26a	0.18634954
120	0xbd6a475f	-0.05719697
121	0x3dc43150	0.09579718
122	0xbdf8dbb4	-0.1215128
123	0x3e1fc8b0	0.156039
124	0xbe3290c4	-0.17438036
125	0x3e18aa54	0.14908725
126	0x3e27bc5f	0.16380452
127	0xbc2c34ce	-0.0105106365
128	0x3d88ecfa	0.06685825
129	0xbd8dbb50	-0.06920493
130	0xbe3d74f1	-0.18501641
131	0x3aacaa1c	0.0013173255
132	0x3e17b7a0	0.14816141
133	0x3cf56d53	0.029959356
134	0xbd2c5346	-0.042071603
135	0x3e7373c6	0.23774633
136	0x3e1274d0	0.14302373
137	0xbd9394a4	-0.07206085
138	0x3e561807	0.20907603
139	0x3e47497c	0.19461626
140	0xbe4539d1	-0.19260336
141	0xbdf0ac5d	-0.11751626
142	0xbd88374d	-0.06651173
143	0xbe70ac7c	-0.23503298
144	0x3e1ded99	0.15422668
145	0x3e3cdd66	0.18443832
146	0xbce69b04	-0.02815009
147	0x3e3961f2	0.1810377
148	0x3df8e085	0.12152199
149	0xbe5009bc	-0.20316213
150	0x3e71d2f7	0.23615633
151	0xbd16757e	-0.036733143
152	0x3e0face5	0.14030798
153	0x3e65bb26	0.22434673
154	0xbd2a9a6d	-0.04165118
155	0xbd100300	-0.03515911
156	0xbd8a631e	-0.06757186
157	0xbe2d16c4	-0.16903216
158	0xbe5af23b	-0.21381466
159	0x3e4ffe35	0.20311816
160	0x3d7917c0	0.060813665
161	0xbb0e7ccb	-0.0021741863
162	0x3bf660dc	0.0075188708
163	0x3e3fb406	0.18721017
164	0xbdb95c06	-0.09050755
165	0x3d93b7ad	0.07212768
166	0x3d87de8d	0.06634245
167	0x3dfc2d61	0.12313343
168	0x3da902eb	0.0825251
169	0x3d93fdf0	0.07226169
170	0xbe33e26c	-0.17566842
171	0x3d8e2d85	0.06942276
172	0x3e3c0a1a	0.18363228
173	0x3e21cb78	0.15800273
174	0xbd579236	-0.052629672
175	0x3dbf36c7	0.0933662
176	0x3d262e21	0.040571336
177	0xbde6f2d3	-0.11276784
178	0xbcf0cd0c	-0.029394649
179	0xbd8b2f06	-0.067960784
180	0xbda7b074	-0.08187953
181	0xbd5c08f5	-0.05371948
182	0x3dfbc119	0.1229269
183	0x3db1c887	0.08680826
184	0x3e25c514	0.1618846
185	0xbe20a6e3	-0.15688662
186	0x3be15872	0.0068769986
187	0x3e03ccf8	0.12871158
188	0xbdb64000	-0.08898926
189	0xbe2c7636	-0.16841969
190	0x3e18e3b9	0.1493062
191	0x3df33236	0.11874811
192	0xbe421c90	-0.18956208
193	0x3e2fabc8	0.17155373
194	0xbd5ae419	-0.053440187
195	0xbe4190a4	-0.18902832
196	0xbe18252d	-0.14857931
197	0x3e1482d6	0.14503035
198	0x3e4b4bcb	0.19853131
199	0x3e0b4e11	0.13603999
200	0xbab50855	-0.0013811687
201	0xbc9b805f	-0.01898211
202	0xbd8aa526	-0.06769781
203	0x3d9df922	0.07713534
204	0xbd87a003	-0.06622317
205	0xbd550d69	-0.052014742
206	0x3e1cb562	0.15303567
207	0xbdb79bf6	-0.08965294
208	0x3e2db99a	0.16965333
209	0x3d40df43	0.04708792
210	0xbd3b0f5f	-0.045668956
211	0x3e24bd88	0.16087925
212	0xbd86e0f9	-0.06585879
213	0x3df022b5	0.1172537
214	0xbe158985	-0.14603241
215	0xbd295bc4	-0.04134728

conv1.bias f4 [8]
0	0x3e113c5e	0.14183185
1	0xbe5250d2	-0.20538643
2	0x3e0d4ad9	0.13798083
3	0xbd43d214	-0.047807768
4	0x3dccd6ba	0.10001893
5	0x3d503f0f	0.050841387
6	0x3e049f8a	0.12951484
7	0xbd148a4c	-0.036264703

conv2.weight f4 [16, 8, 3, 3]
0	0xbd829f55	-0.063780464
1	0x3d14978a	0.03627733
2	0x3e1cdde1	0.15319015
3	0xbddc9ff5	-0.10772697
4	0x3e28f7f0	0.1650083
5	0x3de267ab	0.11054929
6	0xbdea9c85	-0.11455635
7	0x3e4f31f8	0.20233905
8	0x3e2c004c	0.16796988
9	0x3d2aeff1	0.041732732
10	0x3dce2efd	0.10067556
11	0x3d786f81	0.060653213
12	0x3d177f6a	0.036986746
13	0x3e02cc16	0.12773165
14	0x3d8fa84a	0.070145205
15	0x3e07281b	0.13198893
16	0xbc9e2140	-0.019302964
17	0xbd6eccfb	-0.058300953
18	0xbda264dc	-0.07929394
19	0xbd8ff11d	-0.070284106
20	0xbd0a6ca4	-0.033795014
21	0xbddbb7ab	-0.10728391
22	0xbbd0c1eb	-0.006370773
23	0x3bca4815	0.0061731436
24	0xbd95409e	-0.072877154
25	0xbd95cf1e	-0.07314895
26	0xbdb4569c	-0.08805582
27	0x3d5b8a00	0.053598404
28	0x3df58ff1	0.11990345
29	0xbd90ab4f	-0.070639245
30	0xbdc254a8	-0.09488803
31	0x3df24d68	0.1183117
32	0x3d56fe17	0.052488413
33	0x3d084de9	0.033277426
34	0xbccf5f7b	-0.025314083
35	0xbcce4e88	-0.025183931
36	0xbda67131	-0.08127058
37	0x3d93dccb	0.07219847
38	0x3c20634d	0.0097893
39	0x3d35b29f	0.0443598
40	0xbddd598c	-0.10808095
41	0xbdbde115	-0.092714466
42	0x3db8f790	0.09031594
43	0x3c27d5b6	0.010243824
44	0x3d400054	0.046875313
45	0xbba8559d	-0.005137159
46	0xbdb762e0	-0.08954406
47	0x3ddd9899	0.10820121
48	0x3cddd4c8	0.027079001
49	0x3d1d5ab7	0.03841659
50	0x3ca26913	0.019825494
51	0xbc8c846f	-0.017152993
52	0x3d6c32ce	0.05766564
53	0x3dd76f74	0.10519305
54	0x3dca5e30	0.09881246
55	0x3df56f21	0.11984087
56	0x3db08fef	0.08621203
57	0x3de2e444	0.110786945
58	0xbd756ecb	-0.059920114
59	0xbdcbebc6	-0.099570796
60	0x3dfb5bb1	0.12273348
61	0x3c9543ee	0.018220868
62	0xbdce3fc6	-0.100707576
63	0x3c0a1c9f	0.008429675
64	0xbd3d17b1	-0.046165172
65	0x3cebe7d0	0.02879706
66	0xbd0ccbe8	-0.034374148
67	0x3d8ab03b	0.067718945
68	0xbe0aa9b6	-0.13541302
69	0xbda90fcc	-0.08254966
70	0x3d00dbc8	0.0314596
71	0xbb2fbb92	-0.0026814681
72	0x3da4e4b3	0.080514334
73	0xbdbc1a69	-0.09184725
74	0xbb91ec38	-0.0044532083
75	0xbb248388	-0.0025102813
76	0xbd7f056a	-0.062261023
77	0xbdb1769c	-0.08665201
78	0xbbf68451	-0.0075230976
79	0x3d66f0d6	0.056382023
80	0xbc1f3f15	-0.00971963
81	0x3dcd1226	0.10013227
82	0xbd6dc87e	-0.058052532
83	0xbd92bbc9	-0.071647234
84	0x3c22b9d2	0.009931998
85	0xbd8c82dd	-0.06860898
86	0xbcc0d18f	-0.023537425
87	0xbd361d97	-0.044461813
88	0x3dca7f5f	0.09887575
89	0x3cd5e6ef	0.026111094
90	0x3e18878e	0.1489546
91	0x3dcad9cb	0.09904822
92	0xbca8f6cc	-0.020625494
93	0x3e17cd5e	0.14824435
94	0x3dd7bd99	0.1053421
95	0x3d4e2a6f	0.050333437
96	0xbce693a7	-0.028146578
97	0x3d44fcc4	0.04809262
98	0xbd0953bd	-0.033527125
99	0xbcf529be	-0.02992713
100	0xbbfa0083	-0.0076294555
101	0xbdb02bbd	-0.086020924
102	0x3c9baf90	0.019004613
103	0xbce50010	-0.027954131
104	0xbd517b79	-0.051143143
105	0xbd3cfd84	-0.04614021
106	0xbd57832d	-0.052615333
107	0xbdad45f2	-0.08460607
108	0x3d24ee03	0.04026605
109	0xbcd65761	-0.026164712
110	0x3db05239	0.08609433
111	0x3d51c2b2	0.051211067
112	0xbd289fd2	-0.04116804
113	0x3dedadaf	0.11605393
114	0xbd6d229e	-0.05789434
115	0x3d776ed1	0.060408417
116	0xbd74771e	-0.05968391
117	0x3bba590d	0.005686885
118	0x3dfd3e8c	0.123654455
119	0x3c701860	0.014654249
120	0x3cbf0870	0.023319453
121	0x3e01077c	0.12600511
122	0xbdcbbc39	-0.0994801
123	0x3cfaa7d9	0.030597614
124	0x3dc94e2a	0.09829362
125	0xbd7a09a5	-0.061044354
126	0x3c39628c	0.011314999
127	0xbcb1c1cf	-0.02169886
128	0xbc5d892c	-0.013521474
129	0x3d9666ba	0.07343812
130	0xbd384d1b	-0.04499541
131	0x3dc52231	0.09625662
132	0x3d846944	0.0646539
133	0xbda2c150	-0.07947028
134	0x3df4ce09	0.119533606
135	0xbd826845	-0.06367544
136	0xbdce52ee	-0.10074411
137	0xbdd84263	-0.10559537
138	0x3dee2199	0.11627502
139	0x3c92aa5e	0.017903503
140	0xbd069637	-0.0328581
141	0x3d05b0d8	0.032639354
142	0xbdedbf2a	-0.11608727
143	0x3ba7d4fa	0.0051218243
144	0xbd35cbab	-0.044383686
145	0xbd9375b9	-0.07200188
146	0xbcbe8bb4	-0.023259975
147	0xbd4b108a	-0.04957632
148	0x3d9a4059	0.075318046
149	0xbe0408d4	-0.12893993
150	0xbd1bade1	-0.03800762
151	0x3b6370a7	0.0034704597
152	0xbd3408b6	-0.04395362
153	0xbd20641c	-0.03915797
154	0x3e18dd3b	0.14928143
155	0x3e146e91	0.14495303
156	0xbd33a140	-0.04385495
157	0x3d6f2956	0.05838903
158	0x3d899f13	0.06719794
159	0xbdf3688d	-0.11885176
160	0xbdc1b596	-0.09458463
161	0x3d8493a7	0.06473475
162	0x3d40e87c	0.047096714
163	0xbd84389c	-0.0645611
164	0x3d2621af	0.040559467
165	0x3e05e84d	0.13076897
166	0x3dd8f34c	0.1059328
167	0xbda0cf5a	-0.07852049
168	0x3dcb012e	0.099123344
169	0x3ca70635	0.020388702
170	0xbd3f74a1	-0.046742085
171	0xbc572f3e	-0.013133822
172	0xbd8fcc13	-0.07021346
173	0xbd983664	-0.07432249
174	0x3bed9170	0.0072500035
175	0x3d288b0b	0.041148227
176	0xbdb4ad84	-0.08822158
177	0x3dad2870	0.084549785
178	0xbdcb83d5	-0.09937254
179	0xbb2fecd4	-0.0026844041
180	0xbd7a29dd	-0.06107508
181	0xbd67d046	-0.05659511
182	0x3db94765	0.090468206
183	0x3d341ccf	0.043972787
184	0xbcd76778	-0.026294455
185	0xbd9d4d6f	-0.07680785
186	0x3e116149	0.14197268
187	0x3e09535f	0.1341071
188	0xbd55ca86	-0.052195095
189	0xbd20a422	-0.03921903
190	0x3d6d8250	0.057985604
191	0xbd9c4941	-0.076311596
192	0xbd8b8f98	-0.06814498
193	0xbda5e831	-0.081009276
194	0x3d8e53e3	0.06949594
195	0x3d9afbbc	0.07567546
196	0xbd966567	-0.0734356
197	0x3d4593c2	0.048236616
198	0x3cde8c83	0.02716661
199	0xbd1059b3	-0.035241794
200	0x3db4a108	0.08819777
201	0xbd12863d	-0.03577255
202	0xbcc80258	-0.02441518
203	0x3df4ee28	0.11959487
204	0xbd7403b9	-0.059573863
205	0xbd1d3a6d	-0.038385797
206	0xbc932450	-0.017961651
207	0x3e1882d0	0.14893651
208	0x3e1d296c	0.15347832
209	0x3cf7f1ff	0.03026676
210	0x3dc540b3	0.09631481
211	0x3dd639d7	0.10460251
212	0x3d2da88c	0.042397067
213	0xbdd10c05	-0.10207371
214	0xbd92e6d2	-0.07172932
215	0x3e1b5bf6	0.15171799
216	0xbd9977b6	-0.07493536
217	0x3dba79d9	0.09105272
218	0xbdb8d7cc	-0.09025535
219	0xbe3a0ff5	-0.1817015
220	0xbc971efd	-0.018447394
221	0xbcf0758f	-0.029352931
222	0xbe3c1536	-0.18367466
223	0xbd1569b1	-0.03647775
224	0xbc18b1c4	-0.009319726
225	0xbdb69b90	-0.0891639
226	0xbdc91c9a	-0.098199084
227	0xbde0cc64	-0.109764844
228	0x3b7154b3	0.0036824166
229	0x3dc07b29	0.09398491
230	0x3d64038a	0.055667438
231	0xbcd1ae72	-0.025595877
232	0x3d0dcf2e	0.03462141
233	0x3d548120	0.051880956
234	0xbd83b071	-0.06430138
235	0xbd95f9aa	-0.0732301
236	0x3daed425	0.08536557
237	0xbdb762be	-0.089543805
238	0xbdad916b	-0.08475002
239	0xbdd34d76	-0.10317509
240	0xbd0b2e28	-0.033979565
241	0xbd7189d7	-0.058969345
242	0x3cd6f118	0.02623801
243	0xbd13d4b8	-0.036091536
244	0xbcd95c57	-0.026533289
245	0x3d3b59e9	0.045740042
246	0x3d6c8fac	0.057754204
247	0xbd078d8f	-0.033093985
248	0xbd0547bb	-0.03253911
249	0xbd9fb791	-0.077986844
250	0xbc3a4936	-0.011369994
251	0x3d89b860	0.0672462
252	0x3d00bad1	0.031428162
253	0x3cc7cbb4	0.024389125
254	0x3a8bfcad	0.0010680162
255	0xbd9c9636	-0.07645838

conv2.bias f4 [16]
0	0x3d4ff604	0.05077173
1	0x3cc23568	0.023707107
2	0x3d96d375	0.07364551
3	0x3ca30ab4	0.019902565
4	0x3d4a7275	0.04942556
5	0xbdca1166	-0.098666
6	0x3db857d1	0.09001125
7	0xbdbb82aa	-0.091557816
8	0x3ccfdd21	0.025373997
9	0x3dd334a5	0.103127755
10	0xbd52c73a	-0.05145953
11	0x3dd9ceab	0.10635122
12	0x3d9af59f	0.0756638
13	0xbda61e7b	-0.081112824
14	0xbc363209	-0.011120328
15	0xbd495338	-0.04915163

fc1.weight f4 [50, 1024]
0	0xbb814baa	-0.0039457874
1	0x3d4c176e	0.04982703
2	0x3d413782	0.047172077
3	0x3cc3767a	0.023860205
4	0x3c91aa2c	0.01778134
5	0x3c16ca3e	0.009203492
6	0x3d3bf5c2	0.04588867
7	0x3d5673b3	0.052356433
8	0x3c57ccc5	0.013171379
9	0x3c19134a	0.009342978
10	0x3ce686f4	0.028140523
11	0x3cbec42b	0.0232869
12	0x3cf73794	0.030177869
13	0x3cc7227f	0.024308441
14	0x3d029af8	0.03188607
15	0x3d06c973	0.03290696
16	0x3c4f8fd5	0.01266857
17	0xbc7ed14f	-0.015552833
18	0x3c87ea60	0.01659125
19	0x3d3cd98a	0.0461059
20	0x3c87de5c	0.016585521
21	0x3d4015a3	0.046895634
22	0x3ca87181	0.020561935
23	0x3b908b59	0.004411143
24	0xba388293	-0.00070385
25	0xbc0a485f	-0.008440106
26	0x3cb9aa7b	0.0226643
27	0xbba6a99f	-0.0050861384
28	0xbc2d27c5	-0.010568564
29	0xbbe7fb2e	-0.0070795035
30	0x3d2fb408	0.0428963
31	0x3c08d384	0.0083512105
32	0xbcf24dc8	-0.029578105
33	0xbaed162c	-0.0018088273
34	0xbbffad69	-0.0078026545
35	0x3d0db022	0.0345918
36	0x3c90c515	0.017672101
37	0xbc1d0570	-0.009583816
38	0x3c3c2b47	0.0114849275
39	0xba9f6524	-0.001216088
40	0xbd08b704	-0.033377662
41	0xbc901059	-0.01758592
42	0x3d301051	0.04298431
43	0x3c9e9601	0.019358637
44	0x3d28136d	0.04103415
45	0x3c52748c	0.01284517
46	0xb75c8432	-1.3143801e-05
47	0x3abbe5e0	0.0014335476
48	0x391b3248	0.00014800683
49	0x3bcac26f	0.006187729
50	0xbca2a5f2	-0.01985452
51	0x3d22f05b	0.039780002
52	0xbc9630d3	-0.018333828
53	0x3cff7228	0.031182364
54	0x3cf1e087	0.029526008
55	0x3d0a75cd	0.03380375
56	0xbd21c661	-0.03949583
57	0x3c934285	0.017976055
58	0x3c959b51	0.018262537
59	0x3ccab91c	0.02474647
60	0x3c8a4a6b	0.016881188
61	0x3c306aa1	0.01076761
62	0x3ce531ca	0.027977843
63	0x3c8dbb5a	0.01730125
64	0xbcf9572a	-0.03043707
65	0xbd569050	-0.05238372
66	0xbd1a2269	-0.037630472
67	0xbd3d8ef3	-0.046278905
68	0x3c7ba1ec	0.015358429
69	0xba8f1425	-0.0010916038
70	0xbd8b0ecc	-0.06789932
71	0x3cfffbfd	0.031248087
72	0xbe1a56fd	-0.15072246
73	0xbbfc1577	-0.0076929885
74	0xbd2e0112	-0.04248149
75	0xbd32e63c	-0.0436766
76	0xbd1cba2c	-0.038263485
77	0xbc5ef942	-0.013609232
78	0xbc11816c	-0.008880954
79	0x396a7cf5	0.00022362529
80	0xbdf93d61	-0.1216991
81	0xbd23b650	-0.03996879
82	0x3c1486ce	0.009065343
83	0x3bec5f2b	0.0072134933
84	0x3aa6f4fe	0.0012737808
85	0xbc83df70	-0.016097754
86	0x3af0dba1	0.0018376001
87	0x3c1090c6	0.008823579
88	0xbe0a5a0f	-0.13510917
89	0xbd1b20ee	-0.0378732
90	0x3c16b779	0.009199017
91	0x3bd2ceb2	0.0064333314
92	0xbc80f68c	-0.015742563
93	0xbc5a1a07	-0.013311869
94	0x3cf8db83	0.030378109
95	0x3d45549a	0.048176385
96	0xbe0dd1ba	-0.13849536
97	0xbcb965b4	-0.022631504
98	0xbd54686b	-0.051857393
99	0x3c688923	0.014192852
100	0xbb83e02d	-0.0040245266
101	0x3cadd485	0.021219501
102	0x3d9877e9	0.07444746
103	0x3cc43106	0.023949157
104	0xbde078b9	-0.10960526
105	0xbd39e279	-0.045381997
106	0xbc003fbb	-0.0078276945
107	0x3cd48389	0.025941627
108	0xbd01ae1c	-0.031660184
109	0xbd8f67ce	-0.07002221
110	0x3d7c6a7a	0.06162498
111	0x3c6fdd2d	0.014640135
112	0xbe0505c7	-0.12990485
113	0xbd078c47	-0.033092763
114	0xbd023c9c	-0.031796083
115	0x3b9f8867	0.0048685553
116	0x3c479804	0.012182239
117	0xbd717982	-0.05895377
118	0x3bd0e380	0.0063747764
119	0xbc3d2ff8	-0.011547081
120	0xbd6d4bbf	-0.057933565
121	0xbd4bd611	-0.049764697
122	0xbcbca792	-0.023029123
123	0xbba5cd0f	-0.0050598453
124	0xbab0356b	-0.0013443654
125	0xbbddc6d1	-0.0067680855
126	0x3ce7333a	0.028222669
127	0x3d497719	0.049185846
128	0x3cdcd289	0.02695586
129	0xbd8810f4	-0.066438586
130	0xb69f1369	-4.740829e-06
131	0xbd54bc2a	-0.05193726
132	0xbc1c18c6	-0.009527391
133	0xbb6e4f71	-0.0036363269
134	0xbd7b5e0b	-0.061368983
135	0xbcc9d7e0	-0.02463907
136	0xbb85f5d6	-0.004088144
137	0xbd4310af	-0.047623333
138	0xbd23d43d	-0.039997328
139	0xbd896b83	-0.06709959
140	0xbd613853	-0.054985356
141	0xbcda396e	-0.026638713
142	0xbc9d7c1c	-0.019224219
143	0xbcbb9995	-0.022900382
144	0x3c87e5e4	0.016589113
145	0xbce789b2	-0.0282639
146	0x3c27a387	0.010231859
147	0xbd3199bc	-0.043359503
148	0xbd853e37	-0.06506007
149	0xbd8b3d00	-0.06798744
150	0x3c234bdd	0.009966818
151	0xbd6a7160	-0.05723703
152	0x3936daf5	0.0001743844
153	0x3d2a99cf	0.04165059
154	0x3a61ddaa	0.00086160994
155	0x3c53f745	0.012937372
156	0xbd02b412	-0.03191001
157	0xbd0a18df	-0.033715125
158	0xbb4de7b0	-0.0031418614
159	0xbc4ed93a	-0.012625033
160	0xbc4e2be7	-0.012583709
161	0x3d3daf80	0.046309948
162	0x3d51446e	0.05109065
163	0xbc6be03b	-0.014396722
164	0xbaad1f74	-0.0013208226
165	0xbd1f61ae	-0.038911514
166	0xbd1e9a53	-0.038721394
167	0x3c88e443	0.016710406
168	0xbd32ed16	-0.043683134
169	0x3d29d683	0.04146434
170	0x3d486248	0.048921853
171	0xbb89ed28	-0.0042091794
172	0xbb9ca497	-0.004780363
173	0x3ca7ddf5	0.02049158
174	0xbc3edebb	-0.011649783
175	0x3bd399e2	0.0064575532
176	0xbd32a061	-0.04360998
177	0x3d5c7db2	0.05383081
178	0x3d4d028c	0.050051257
179	0x3d040780	0.032233715
180	0xbc4a69ac	-0.012354296
181	0xbbaaceb9	-0.0052126315
182	0xbcc42610	-0.02394393
183	0x3ca7e12d	0.020493114
184	0xbc97da24	-0.018536635
185	0xbd347af4	-0.04406257
186	0xbca58ff4	-0.020210244
187	0x3c9ee26d	0.019395078
188	0x3d390c60	0.045177817
189	0x3d27a08e	0.0409246
190	0x3c7081cb	0.014679383
191	0xbba11e65	-0.0049169534
192	0x3d3109ee	0.04322236
193	0x3d3a2a5c	0.045450553
194	0x3d763360	0.06010759
195	0x3c9b1f7a	0.018935908
196	0x3ce92414	0.028459586
197	0x3d42a299	0.047518346
198	0x3cb020c7	0.021500004
199	0x3dc58490	0.09644425
200	0x3c9c0d5e	0.019049343
201	0xbca38701	-0.019961836
202	0x3b961567	0.004580188
203	0xbd093c2b	-0.033504646
204	0xbdcd9fb0	-0.100402236
205	0xbda603ae	-0.081061706
206	0xbd9e9681	-0.0774355
207	0xbd99a9ca	-0.07503088
208	0x3bc4f3ed	0.0060105235
209	0xbc4be785	-0.012445335
210	0x3bb15cf5	0.0054126927
211	0xbd377611	-0.04479033
212	0xbd4925be	-0.04910826
213	0xbdcade02	-0.09905626
214	0xbda9b1da	-0.082858756
215	0xbda5e7fb	-0.081008874
216	0x3c98fb02	0.018674377
217	0x3ca5d27b	0.020241966
218	0xbc88f9c0	-0.016720653
219	0xbceb495d	-0.028721506
220	0xbcbfead7	-0.02342741
221	0xbdeeff9a	-0.11669846
222	0xbd703750	-0.0586465
223	0xbd8099ed	-0.06279359
224	0xbc866349	-0.016404765
225	0x3dc7d72c	0.09757838
226	0xbce9f1c6	-0.02855767
227	0xbd8ca344	-0.06867078
228	0x3d06e576	0.032933675
229	0xbdb93572	-0.09043397
230	0xbdc05e6f	-0.09393012
231	0xbd9faa05	-0.077961005
232	0xbcaad7c4	-0.020854838
233	0x3d7997f8	0.060935944
234	0x3c2e52aa	0.010639826
235	0xbcc25ee3	-0.023726886
236	0xbc6b1aef	-0.014349683
237	0xbcf3cbd3	-0.029760277
238	0xbd968a10	-0.07350552
239	0xbd4a8a71	-0.049448434
240	0x3b431fd8	0.002977362
241	0x3dc2c031	0.09509314
242	0xbd00b1f7	-0.03141972
243	0xbcde0327	-0.027101113
244	0xbd1f888c	-0.03894858
245	0x3bf02056	0.0073280735
246	0xbccec9ba	-0.025242675
247	0xbde4f956	-0.111803696
248	0x3cbfdebe	0.023421641
249	0xba30a6b3	-0.00067387073
250	0xbc39e21d	-0.0113454135
251	0x3d27366c	0.040823385
252	0x3cc1fba3	0.02367956
253	0x3c79ef52	0.015254812
254	0x3d11dd54	0.035611466
255	0x3d70d6a9	0.058798466

fc1.bias f4 [50]
0	0x3d19c911	0.037545267
1	0x3c937f9a	0.018005181
2	0xbb93482a	-0.0044946866
3	0xbc4f108f	-0.012638225
4	0x3c7a7c57	0.015288434
5	0xbc94c3d7	-0.01815979
6	0xbb2646a5	-0.0025371697
7	0xbc98fc87	-0.018675102
8	0xbbc0122f	-0.0058615427
9	0x3a1e3e35	0.0006036491
10	0x3b1195b5	0.0022214476
11	0xbc2594be	-0.010106264
12	0x3c868c33	0.016424274
13	0x3c52bb40	0.012862027
14	0x3b9e119c	0.0048238765
15	0xbd0a5cf9	-0.033780072
16	0xbc031de4	-0.008002732
17	0x3c1164df	0.008874147
18	0xbc70c5ec	-0.014695626
19	0x3c8e1b39	0.017346965
20	0xbcc99f4d	-0.024612093
21	0x3ce37a44	0.027768262
22	0x3d02c461	0.031925563
23	0xbcfe3b71	-0.031034203
24	0xbc1b6ead	-0.009486836
25	0x3c3c6cea	0.0115005765
26	0xbc99096c	-0.01868125
27	0xbb7ffbf4	-0.0039060088
28	0x3b82cb61	0.00399153
29	0xbd0d597f	-0.03450918
30	0x3c3a274b	0.011361907
31	0x3b979e69	0.0046270383
32	0xbc90585f	-0.017620264
33	0x3aa6d933	0.0012729525
34	0x3c405413	0.011738795
35	0x3c66e3f9	0.014092439
36	0xbcb1bb4e	-0.02169576
37	0x3c4a596f	0.012350424
38	0xbcd3992d	-0.025829876
39	0xbcbc8450	-0.02301231
40	0x3aaaba8e	0.0013025568
41	0xbb8ac909	-0.004235391
42	0xbb61530d	-0.0034381778
43	0xbc649e7c	-0.013953801
44	0x3af73599	0.0018860578
45	0xbd062933	-0.032754134
46	0x3a6d17cc	0.00090443785
47	0xbb92fcb6	-0.004485692
48	0xbc819ef4	-0.015822865
49	0xbc101cae	-0.0087959

fc2.weight f4 [2, 50]
0	0x3c81f92a	0.015865881
1	0xbe6875a9	-0.22701134
2	0xbdbdb719	-0.09263439
3	0x3e333261	0.17499687
4	0xbdd2994a	-0.10283144
5	0xbe2a7de7	-0.1664959
6	0xbd85f9da	-0.06541796
7	0x3b5fba05	0.0034137976
8	0x3e1995b6	0.14998516
9	0xbda65f11	-0.08123601
10	0xbe0b85df	-0.13625287
11	0x3d74485d	0.059639324
12	0x3e2a48ee	0.16629383
13	0xbe028564	-0.12746197
14	0xbcf6467c	-0.030062906
15	0xbcd79b68	-0.02631922
16	0x3d68505c	0.05671726
17	0x3e89b8d6	0.2689883
18	0x3e2e5503	0.17024617
19	0xbdfdae7e	-0.12386797
20	0x3e5d5e6a	0.21618047
21	0xbdf4d5d7	-0.11954849
22	0x3d7c43d1	0.061588112
23	0x3dcc40f2	0.09973325
24	0xbcc0db46	-0.023542058
25	0xbe297838	-0.16549766
26	0xbcba3afb	-0.022733202
27	0xbe3dd30d	-0.1853754
28	0xbe5b3de7	-0.21410333
29	0xbe3cd35e	-0.18440005
30	0xbc16095d	-0.009157506
31	0xbd775918	-0.0603877
32	0x3e003d4f	0.12523387
33	0xbd064bc9	-0.032787118
34	0x3d72345f	0.059131976
35	0xbde603ea	-0.11231215
36	0x3da14cf8	0.07876009
37	0xbe1aaa7d	-0.15104099
38	0x3d07edc9	0.033185754
39	0x3d75dbf9	0.060024235
40	0x3dac5fe9	0.08416731
41	0xbd8b5e4c	-0.06805095
42	0xbdb689ae	-0.08912979
43	0xbdb0bb2f	-0.086294524
44	0x3dcbac83	0.099450134
45	0xbe2bcc54	-0.16777164
46	0x3e2862d7	0.16443954
47	0x3df84c60	0.121239424
48	0xbda948f8	-0.08265871
49	0xbd3b5fb2	-0.04574556
50	0xbdb92cb7	-0.09041732
51	0x3e47ed22	0.19524053
52	0x3e5c478a	0.21511665
53	0xbe08a983	-0.13345914
54	0x3def2a07	0.11677938
55	0x3d9ae94d	0.0756403
56	0x3a5e77fc	0.0008486507
57	0x3e263b72	0.16233614
58	0x3d516921	0.05112565
59	0x3e08c551	0.1335652
60	0x3e29a9d2	0.16568688
61	0xbd874808	-0.06605536
62	0xbe0c82be	-0.13721749
63	0x3e485fbf	0.19567774
64	0xbe06a3a9	-0.13148369
65	0x3e188105	0.14892967
66	0x3dad95fe	0.08475874
67	0xbdcfc825	-0.101455964
68	0xbe060c7a	-0.13090697
69	0x3e22afcd	0.15887375
70	0xbe137c61	-0.14402916
71	0x3dc4922c	0.095981926
72	0xbe02d8b2	-0.12777975
73	0xbd8221cd	-0.06354103
74	0xbe309d6c	-0.17247552
75	0x3dd0103b	0.10159346
76	0x3bb3dc8e	0.0054889387
77	0x3e2c9276	0.16852745
78	0x3d08d1b5	0.033403117
79	0x3d997053	0.07492127
80	0xbe396920	-0.18106508
81	0xbdbd40f1	-0.09240902
82	0xbd3f913f	-0.046769377
83	0x3e1ed3dc	0.15510505
84	0xbe30a8b3	-0.17251854
85	0x3e6f1fc8	0.23351967
86	0xbd89ec1a	-0.06734486
87	0x3dd5adfa	0.10433574
88	0xbdfe0b4c	-0.124044985
89	0xbd80303d	-0.06259201
90	0x3d3f3313	0.046679568
91	0x3e5968f9	0.2123145
92	0x3b679afe	0.0035340185
93	0x3dd49223	0.10379436
94	0xbe04062a	-0.12892976
95	0x3dcac9e7	0.09901791
96	0xbe730f1d	-0.23736234
97	0xbddbc611	-0.107311375
98	0x3dfd2c8f	0.123620145
99	0x3cc27803	0.023738867

fc2.bias f4 [2]
0	0x3d22a42f	0.03970736
1	0xbd0b3bca	-0.033992566
